results/conv_net.txt.pth (torch, 22783 bytes, 6 tensors)

conv_in.weight f4 [6, 1, 5, 5]
00000000: 1d05 f33c 24fd f33d dfc7 f73d 2e92 6bbb
00000010: 5c53 39be 7d80 a8be 5b1b 26be 6264 333d
00000020: b9fe a13e 9e8b 3b3e 046b e4be 595e 7ebe
00000030: cf1b 4fbe 6872 063f 6ce5 1a3d 15fb 03be
00000040: cd85 b5bd 5783 fc3e e168 393f 3998 83bc
00000050: 92de 013c 36cb 5bbe e191 873e 8719 853e
00000060: 595a 34bf 7b7f 883e 8d7f 9f3d dd01 57bf
00000070: a240 49bf 7aec 35bf 9045 823a 9eed ca3e
00000080: 70b5 5e3e 87f0 ff3d b451 933e 00ad a63b
00000090: a078 123f 7a2d 5a3f d2ac 543f 9f48 5f3e
000000a0: 2b86 93bd bd41 f8bd e8a5 aebd f94d 423d
000000b0: 9a0e 4e3d 7af9 04bf ef2d 0dbf bcb7 07bf
000000c0: 4d5c 90be 5be0 143e 80d1 483d ed14 173e
000000d0: b272 cc3b d1c9 4cbe f17f 95be fa7f c1bd
000000e0: e98a bcbe 9dd1 36bf a59d 22bf 64b4 cfbe
000000f0: 2d83 8cbe e7c6 c9be 497a 72be 6ebf 103e
00000100: ccc5 f53e 9b46 b3be 23d0 03be dd6f 503e
00000110: 1c11 153f a1e5 af3e dcc3 713e 20e5 9b39
00000120: faaa 0b3f f07e b63e 48cd abbe 78cf a03d
00000130: 10ff 543d 9fc9 c9bd 0bbb 90be 3562 fbbe
00000140: 8bd1 f5bd d9aa b33d 21e7 7d3e 97c4 80be
00000150: f516 1bbf 9b80 a1bd 7d5b 9d3e c8f4 323f
00000160: 0122 aebe 3fd9 01bf 9115 e6ba a2d6 a53e
00000170: 8812 463f 0e7e 81bd 1f7f 13be 0997 9bbe
00000180: debb 1b3e fee7 6f3e 53ad 393e 6e14 0cbc
00000190: 76dc c5bc ee8e b63d 5180 283e 7be3 153f
000001a0: 94c2 013f 39bd c3be 7e6d 633d 0304 b73e
000001b0: 7b5e d43e 6222 ab3e 6356 19bf 7250 1fbf
000001c0: b7e1 aabe 27b7 72be db99 59be 8c90 0abf
000001d0: dcdb f7be 5c02 0cbf 2b2d 4dbf 5615 f9be
000001e0: 0897 cb3d 4973 80be ec80 dfbe 0b23 8cbd
000001f0: 1b85 88be 6eb6 293f 5d95 56be d4bf c63d
00000200: b160 f93d 1e8a a33e c295 3dbe 46cc a2be
00000210: 7c4a 993e b5d3 db3d b8a2 763d 9839 533e
00000220: 50fd b93e 6719 093f a56b 27be 3f43 abbe
00000230: ae30 293f fcea 7e3e 23fd e4bd bc98 95be
00000240: 08b1 bfbe 9574 28be 48f5 43bf 7168 12bf
00000250: b995 0fbf 2bce 8bbd
0.029665524 0.11913517 0.12098669 -0.0035945284 -0.18098205 -0.3291053 -0.16221373 0.043796904
0.3163965 0.18314978 -0.44612896 -0.24840678 -0.20225452 0.5251832 0.03781645 -0.12888749
-0.08863411 0.49318954 0.7242566 -0.016063796 0.0079266 -0.21464238 0.26478484 0.25996038
-0.7045036 0.2665976 0.07788 -0.8398722 -0.78614247 -0.7106396 0.0009938944 0.39634413
0.217489 0.12497049 0.28773272 0.005086541 0.5721531 0.8522564 0.830762 0.21805046
-0.07203325 -0.121219136 -0.08527738 0.04743764 0.050306894 -0.5194317 -0.55148214 -0.5301473
-0.2819542 0.1453871 0.04902792 0.14754076 0.0062392587 -0.19998862 -0.29199174 -0.09448238
-0.3682473 -0.71413594 -0.63521796 -0.40567315 -0.2744383 -0.39409563 -0.2367946 0.14135525
0.4800247 -0.35014805 -0.12872367 0.20355172 0.5822923 0.3435488 0.2360987 0.00029734615
0.54557765 0.3564372 -0.33555055 0.078520715 0.05200106 -0.09852909 -0.28267702 -0.49098364
-0.12002858 0.08772821 0.247952 -0.25149986 -0.60581905 -0.07885858 0.30733863 0.69904757
-0.34010318 -0.50722116 -0.0017554035 0.32390314 0.77372026 -0.06322871 -0.14403962 -0.30388668
0.15208384 0.23428342 0.18132524 -0.008549793 -0.024152976 0.089139804 0.16455199 0.5855023
0.5068753 -0.38230303 0.05552434 0.35745248 0.41478333 0.3342467 -0.5989744 -0.62232125
-0.33375332 -0.2370268 -0.21250097 -0.5412681 -0.48409927 -0.546911 -0.80147046 -0.4864909
0.09940916 -0.25087956 -0.43653047 -0.068426214 -0.2666405 0.6629399 -0.20955415 0.09704557
0.121766455 0.31941313 -0.1851416 -0.31796473 0.2993964 0.10733739 0.060213774 0.20627439
0.36326075 0.53554386 -0.16349657 -0.33449742 0.66089904 0.24894327 -0.111810945 -0.2921809
-0.37439752 -0.16450723 -0.76546144 -0.57190615 -0.56087834 -0.06826433

conv_in.bias f4 [6]
00000000: e833 fdbe dbb3 34bf 3bb5 5cbd 38ad b0be
00000010: 0896 663d 063b cfbd
-0.49453664 -0.7058694 -0.053883772 -0.34507155 0.056295425 -0.1011868

conv_b.weight f4 [16, 6, 5, 5]
00000000: 46db 66bc fc1b a2bc a03a c53b d5d3 073e
00000010: ce8e 333d a453 ff3c a4d7 56bd 158a 123e
00000020: 5d3c 9a3e 3fb5 e83c e82a 23bd ae7c d3bd
00000030: da36 dc3c 5c85 3f3e de3d 26be 1de0 13be
00000040: 7623 0fbe 66a9 87bd 7616 71bd 6fa7 a6bd
00000050: c792 93bd f993 ddbd d544 85bb 96d4 2ebe
00000060: 6f0a e4bd 8d2a 27bd dd92 9abd 80e7 93bc
00000070: 5a92 dfbc 4a2e 903d 268f 94bd 5634 eebd
00000080: baf6 23be 85b7 09bc 7071 143e 6c31 3fbe
00000090: 41fb 57be 62df d6bd 6495 a8bd ad66 08be
000000a0: 0b97 0fbe eeef 2bbe 299a 79bd 43c9 05bd
000000b0: 277f 08be e527 65be f615 e5bd d8e8 3fbd
000000c0: 4cd9 a0bd afed bfbd bb81 efbd ba0b 4abe
000000d0: ef29 6bbc c4a5 083e f18b 05bd 19a1 f4bd
000000e0: 76a3 dfbd 1876 4e3d 92d6 fb3d 9c9b a0bc
000000f0: 27f2 d7bd bdfb 0bbe be38 c6bd fa3b 55bc
00000100: ac45 e2bd 819a 3abb a04d 47be 51a2 e8bd
00000110: 99aa 2bbc 920b 64bd e770 f63d b3f1 6f3e
00000120: 5f10 703e d0c7 f43d a4c2 fd3d 6fd6 203e
00000130: 2fe3 97bd 0427 12be a5c2 82bd 884b c8b9
00000140: a561 933c bc02 bbbd 2a86 7abe faaa a9bc
00000150: 1a78 f8bd ae2f bcbd 9f69 1abe e6ad cbbd
00000160: b491 ca3d aeb5 4dbe 60b9 ebbc 0cc1 07be
00000170: 2146 c6bd 2ccf a43c 9e47 94be b3e3 d6bd
00000180: afeb 32bd 0c6d 41bd 2705 d2bd f5e3 04be
00000190: b35e a43c 69c2 33bb 440a 0d3d 8609 bcbd
000001a0: 4ba7 54bd c966 a2bd e84b d6bd 8f8b b3bd
000001b0: d011 d7bd c326 0e3d 4b43 93bc ad1c 3ebe
000001c0: 2734 08bd 0a2e 2b3d c968 81bd 75b7 05be
000001d0: 814b 193d 6f1d b43e 5867 153e 67ad 2fbe
000001e0: b297 bbbd 293d c13c dc4d 533d 86b1 f4bd
000001f0: 2bd8 babd 697e e73d d946 943d ea1b 7fbd
00000200: f53c debd 61b4 81bd 4513 3e3e aaf8 ca3c
00000210: aab5 a6bc f6e9 5e3d 7b6a 8c3e 4619 7d3d
00000220: cefa 55bd 2831 1dbe e704 183e 1bef 903e
00000230: 7b62 11bd 289b d7bd 5e33 c6bc be79 a73a
00000240: daf3 f8bd 682b 92bd a0a1 4bbc f5e5 38bc
00000250: 6f12 323d ae7b 07be f2a9 c4bd c372 0abe
00000260: cb72 f5bc 993a 4ebe 3d63 32bd f271 18bd
00000270: 093e 14bd 0841 d8bd 36cb b4bd 78d6 c23d
00000280: e820 00bd f2cf 143e a8d7 21be 4524 043d
00000290: c5d3 063d b6e1 523d d853 c5bc b6cd c4bd
000002a0: d356 18bd 9bed c2bc b5a8 1dbd 2c8a 3bbe
000002b0: 7eba 00be 41cf ec3c 973f 7c3e f5f4 153c
000002c0: 8ab4 943c a237 d9bd 61a3 24be 5ebd c3bd
000002d0: 362b 203e bc91 bcbd 8a15 23bd d7b1 8fbd
000002e0: 2112 af3c b7a2 c63d b809 7e3a c8cd b23a
000002f0: b19c 083e 1995 f83d b15b d7bd 795e 79bd
00000300: 2f94 243e 1fd5 143d 6dd3 08be cd49 6dbd
00000310: 01a0 6bbd f09c 223e 883f cf3d e432 5e3c
00000320: 9071 83bb fec8 9cbb 720d aa3d 59b4 66bc
00000330: cedd 8e3e b0d8 b53b 9ee3 1b3e b3e8 893d
00000340: 23e8 0a3e 5eef 6f3e 17b6 f1bd f1aa 4fbd
00000350: 2b20 e8bc 146e 29bd 6d6b 06be 39f0 c4bd
00000360: bc86 25be 78f8 2dbd 8f3c d5bd 41b0 b03d
00000370: e277 503d 4788 c5bc d724 14be a2b9 7b3c
00000380: aeb2 603e 9e72 d9bd 08f1 11be b5de 42bd
00000390: 01bd 0fbe a489 e5bd b75c c93d 11fe d03d
000003a0: 2416 acbd e6df 6ebd 9852 52bc 7846 7539
000003b0: 7d26 193e 2d4e a0bd de9a 54be dc19 aebd
000003c0: f0be b8bd 6896 b13d dfec c03d fd46 08bc
000003d0: bf45 babd 095e 9b3d 4c14 043e 5720 6b3d
000003e0: 543f aa3c 39c7 293e 437c 493d b371 6b3d
000003f0: a7ee 043e b44b 00bd eccd 85bd 433a 35bd
-0.014090365 -0.019788735 0.0060189515 0.13264401 0.04383736 0.031167813 -0.052451745 0.14310487
0.3012418 0.028406737 -0.03983584 -0.10326515 0.026881624 0.18703216 -0.16234538 -0.14440961
-0.13978371 -0.06624107 -0.05885931 -0.08137404 -0.0720573 -0.10819239 -0.0040670433 -0.17073283
-0.111348026 -0.040812064 -0.07547543 -0.018054724 -0.027291466 0.07040079 -0.07253866 -0.11631076
-0.16012087 -0.008405571 0.14496398 -0.18671197 -0.2109194 -0.10491826 -0.08231619 -0.13320418
-0.14022462 -0.16790745 -0.060938034 -0.03266264 -0.13329755 -0.223785 -0.11185829 -0.046852916
-0.07853946 -0.093715064 -0.11694666 -0.19731036 -0.0143532595 0.13344485 -0.03260416 -0.119447894
-0.109198496 0.05040559 0.122967854 -0.01960545 -0.10544234 -0.1367025 -0.096787915 -0.013014788
-0.11048445 -0.002847344 -0.19463205 -0.113590844 -0.010477685 -0.055675097 0.12033253 0.23432045
0.23443745 0.11952174 0.123906404 0.157068 -0.07416379 -0.14272696 -0.06384782 -0.00038203248
0.017990896 -0.09131381 -0.24465242 -0.02071141 -0.121322826 -0.09188782 -0.15079354 -0.09945278
0.09891072 -0.20088837 -0.028774917 -0.13257235 -0.09681345 0.020118318 -0.2896089 -0.10492649
-0.043681797 -0.047223136 -0.10254889 -0.12977584 0.020064687 -0.002742911 0.03443362 -0.09181504
-0.051917356 -0.07929761 -0.10463697 -0.08766853 -0.10501444 0.034704935 -0.017976424 -0.18565626
-0.03325286 0.041791953 -0.06318814 -0.13058265 0.03742552 0.35178706 0.14590204 -0.17155991
-0.09159793 0.023588734 0.051587924 -0.119479224 -0.09123262 0.11303408 0.072400756 -0.06228248
-0.108514704 -0.06333233 0.18562038 0.024776775 -0.020350296 0.05442234 0.27424988 0.06179168
-0.05224114 -0.15350783 0.1484562 0.28307423 -0.03549431 -0.105276406 -0.024194416 0.0012777371
-0.12155886 -0.07137185 -0.012428671 -0.011285295 0.04347461 -0.13230774 -0.09602727 -0.1352034
-0.029961964 -0.2013954 -0.043551672 -0.03721804 -0.036191974 -0.10559279 -0.08827822 0.09513563
-0.03128138 0.1453245 -0.15804923 0.03226115 0.032916803 0.051484786 -0.024087831 -0.09609549
-0.037192177 -0.02379494 -0.03849097 -0.18314427 -0.12571141 0.02890742 0.24633633 0.009152641
0.018152494 -0.10606314 -0.16077949 -0.09557603 0.15641484 -0.09207484 -0.039815463 -0.07016342
0.02137095 0.09699004 0.0009690779 0.001364165 0.13341023 0.12137813 -0.105155356 -0.06088111
0.16072153 0.03633606 -0.13361903 -0.05793171 -0.05752564 0.1588018 0.101195395 0.013561938
-0.0040113404 -0.0047847023 0.08303346 -0.014081084 0.279036 0.005549513 0.15223548 0.06733837
0.13565116 0.23431155 -0.11802309 -0.05070013 -0.028335651 -0.041364744 -0.13126917 -0.09616131
-0.16164678 -0.042473286 -0.10411941 0.08627368 0.05089558 -0.024112834 -0.14467178 0.0153640825
0.21943161 -0.106175646 -0.14252102 -0.04757567 -0.14036943 -0.112078935 0.09832137 0.10204709
-0.084026605 -0.058318995 -0.012837075 0.00023391272 0.14956088 -0.07827411 -0.20762202 -0.08501026
-0.090207934 0.08671266 0.094201796 -0.008317706 -0.09095334 0.07586295 0.12898368 0.05740389
0.02078215 0.16579904 0.04919077 0.05748148 0.12981664 -0.031322196 -0.06533417 -0.044245016

conv_b.bias f4 [16]
00000000: 64dd 2cbe 449c 373c ef85 f9bd a285 6c3d
00000010: 6214 03be 64d8 05bd 94ef b93d f92c 85be
00000020: f626 963e 555c 013d a959 36be 227b 76bd
00000030: ced9 12be e31d 74bd 029b 8ebc b34a 82be
-0.16881329 0.01120669 -0.12183749 0.05774463 -0.12800744 -0.03267707 0.09078899 -0.26010874
0.293266 0.031582195 -0.1780764 -0.060176022 -0.14340898 -0.059598815 -0.017407898 -0.25447616

fc.weight f4 [10, 256]
00000000: 1661 12be 2621 1cbd c236 fbbb a35a 85bd
00000010: 38f9 f5bd 735b 443e cc24 02bc a0c5 32bc
00000020: f30b 9fbd b405 bd3d fac6 f83d 4c41 573d
00000030: 4f0c c0bd c485 4cbd 4acf cebc abc9 643d
00000040: eb80 3c3c c344 33be d389 b7bd faee 163e
00000050: d213 8cbd 7f62 99bd e68b f2bb 9f2e 2b3e
00000060: 6783 2f3d d68f aa3d 2c8e 923d be5b 91bd
00000070: a387 163e ebb6 e93b 7302 dd3d 9511 8c3d
00000080: bc96 3ebe 3831 1ebd d6cd a3bb 6a56 58bd
00000090: b0ea edbd 7e41 073c 9692 91bc 4dbc 593d
000000a0: 9acc 8ebe a11f c6be b12a df3c 16c8 aa3c
000000b0: d627 a1bd 0a64 133e 66eb 653e 63af 153e
000000c0: 5850 a63e 4202 9e3e a3ef 623e 1439 803e
000000d0: df87 cf3d 3cff 82be bfe5 07be fc2c 19be
000000e0: 5539 07be 5a5a e2bd 45ed 97be 9f62 1ebf
000000f0: a2dd 27be 740b 913d 1a2d 0e3e 44ec 37bd
00000100: 565b 863d dee3 713e c636 793e 6a2f f5bd
00000110: f5ec 063e c05d 1b3e a288 93be 4d82 47bc
00000120: 41fc be3d 8f86 59be b0f5 5f3d 4e24 103f
00000130: cb47 bebe 1efd 69bd 207e aa3d dc20 ef3e
00000140: e89c 52bd 3550 793c bc89 5c3d eb65 203d
00000150: 2fcd dcbc a9d7 8a3a 51e1 0a3d 8151 ee3c
00000160: e979 9f3d 523b f03c 1e3a cabc 83f3 c53c
00000170: c29d 4abb ad96 3a3d 5594 8c3c f90c 4ebd
00000180: fddd 153d e1d7 e9bd fb5c 8dbe c66a edbe
00000190: 0ebe 7a3e 258a 913e a54d 06be c402 95bd
000001a0: faec 97bd dab5 03be b45d 9c3e 007f a23e
000001b0: 0623 8bbc 1e25 e9bd c4ee 73be 3f4b 403d
000001c0: d3c9 8abd 9b2d 293d 2508 80bd 1a3b aebe
000001d0: de72 d0bd d68b 9ebe da2c febe 4b2f 9abe
000001e0: a7a8 a3bd 0107 99be 7c02 963c e5c0 563e
000001f0: de16 c53e 37ed c13e 09e5 0b3e e972 6e3e
00000200: 8fd4 a8bc 3eee 9abd 1336 48be 5e42 4ebb
00000210: 4840 ed3e 93c0 e63e 70c0 71bd 7e42 833e
00000220: e6ef f63d 5f74 8a3e f883 8c3d 8ebf 61bd
00000230: 2cf6 0d3e e17a 08be 9b6f bfbe 6320 81be
00000240: b1ba 49be 8498 a2bc 740a 3c3d 8e1d 34be
00000250: d7c0 02bf 8ce1 d8bc baf8 c13d 47e2 3c3e
00000260: c4ca cbbe 5994 32be 08bb 38be 012c 133e
00000270: dde8 d1bd c06e 9f3b aeb2 863e eb5a 203e
00000280: a1d4 dfbb abd4 b4bc 03cb 553d a4b1 8dbc
00000290: 016d 6cbd 2a8f dabe c37d a8be 13e8 e43d
000002a0: 3e63 b5be cf0c 60bd 69eb 333e de61 0bbd
000002b0: 701a 213d 8719 303d 8a45 7d3e 8350 683e
000002c0: 9e65 c6bc 928f 0dbd 33d3 3b3d 2f2c bcbc
000002d0: 7836 133d 57d8 35bd 1574 163c 4955 0e3d
000002e0: 0e42 313d 1e73 673b bdad 383c e5e0 0dbc
000002f0: c63e 793c ea82 3b3d bdf4 7ebb 96e8 743d
00000300: df03 9cbe 0cac 6ebe f90a 39bc 3242 d13d
00000310: 1246 24be ed9b 60be b424 a2bd de5b fa3e
00000320: d389 1cbc c71e 25be 5aaf 43bd 98fb 273e
00000330: c672 4d3f f84f 333e 026f 0bbf c930 aebe
00000340: 0399 45be f09a d83c 9c5d 8a3d cbac 023d
00000350: ee17 57be 4851 833e 22fb 94bc 1c0f bbbc
00000360: 5e97 e2bd 7520 d63d 958a 373e 3696 53bd
00000370: 497f d0bd ba5f d6bd d867 91bd f6e6 30bd
00000380: 5379 e73d 7785 33be be6f a4be afc0 d8be
00000390: 53dc ac3d 7bb7 6a3d e453 53bd 6609 99bd
000003a0: dbd9 673e c52c a23e 332a 46bd b36e 1f3d
000003b0: 034d 1a3d 86be b13d eb13 5b3e 056e b33d
000003c0: 0636 f03d d090 823e 43a3 163d b2b7 cfbd
000003d0: afb1 703d e316 213d dfef d3be ba7b 5ebd
000003e0: 719a 193c 5c66 a6be b372 463d f1a3 c93e
000003f0: fcf5 99be 8b74 dcbd 8e20 3dbe 1a89 e33d
-0.14294848 -0.03811755 -0.0076664397 -0.06511428 -0.12010425 0.1917551 -0.007943343 -0.010911375
-0.07765951 0.092296034 0.12147327 0.052552506 -0.09377348 -0.049932256 -0.025245328 0.055856388
0.011505346 -0.175067 -0.08961835 0.147396 -0.06839718 -0.0748949 -0.007401931 0.16717003
0.042849924 0.08328216 0.071560234 -0.070975766 0.14700179 0.007132401 0.10791483 0.06839291
-0.18612188 -0.038621157 -0.004998903 -0.052816786 -0.11617029 0.008255361 -0.017770093 0.053158093
-0.27890474 -0.38696006 0.027242037 0.020847362 -0.07868926 0.1439363 0.22453079 0.14617686
0.32483172 0.30861098 0.22161727 0.25043547 0.10133337 -0.25585353 -0.13271235 -0.14958566
-0.13205464 -0.110523894 -0.2967321 -0.61869234 -0.1639314 0.07082263 0.13884392 -0.044903055
0.0656039 0.2362208 0.243373 -0.11971934 0.1317633 0.15172482 -0.2881518 -0.012177062
0.09325457 -0.21242736 0.054677665 0.56305397 -0.3716415 -0.057126157 0.08324838 0.46704757
-0.05141917 0.015216877 0.05384229 0.039159697 -0.026953308 0.0010592836 0.033906285 0.029091598
0.077869244 0.029325161 -0.024685916 0.024163967 -0.0030916785 0.045553852 0.017160574 -0.05030534
0.036588658 -0.11418129 -0.2761 -0.46370524 0.24486563 0.28425708 -0.13115557 -0.07275918
-0.074182466 -0.1286234 0.3054024 0.31737518 -0.016984474 -0.11384033 -0.2382155 0.04694676
-0.06776776 0.04130326 -0.062515534 -0.34029466 -0.10178159 -0.3096606 -0.49643594 -0.30114207
-0.07991152 -0.29888156 0.018311732 0.20972021 0.3849401 0.37876293 0.13661589 0.23286022
-0.020609168 -0.07564972 -0.19551878 -0.0031472663 0.46338105 0.45068797 -0.059021413 0.25636667
0.12057476 0.2704191 0.068611085 -0.05511432 0.13863438 -0.13328125 -0.37389836 -0.25220022
-0.19700123 -0.019848116 0.045908406 -0.17589399 -0.510755 -0.026474737 0.09471269 0.18445693
-0.39803135 -0.17439403 -0.18040097 0.14372255 -0.10249493 0.0048654974 0.26308197 0.15659682
-0.0068307673 -0.022074064 0.05219556 -0.01729662 -0.05772114 -0.4268735 -0.3290845 0.11177077
-0.35427278 -0.054699715 0.1757027 -0.03402888 0.039331853 0.042993095 0.24733558 0.22686963
-0.024218377 -0.034560747 0.045855712 -0.022970287 0.035940617 -0.04439577 0.00918295 0.034749303
0.043275885 0.0035316418 0.011271891 -0.008659576 0.01521272 0.045779146 -0.00389032 0.059792124
-0.30471703 -0.23307818 -0.01129412 0.10217704 -0.16042355 -0.21934481 -0.07917157 0.48898214
-0.009554344 -0.16125022 -0.04777465 0.16404569 0.80253255 0.17510974 -0.5446626 -0.34021595
-0.1929665 0.026441067 0.06756136 0.03190307 -0.21005222 0.2564795 -0.018186156 -0.022834353
-0.11064027 0.104554094 0.17923959 -0.051656924 -0.10180528 -0.10467477 -0.07099885 -0.04318901
0.11302438 -0.17531382 -0.32116503 -0.42334506 0.08440461 0.057303887 -0.051593676 -0.07472496
0.22641699 0.3167478 -0.048380088 0.03892393 0.0376711 0.086789176 0.21394317 0.08761219
0.11729054 0.25501108 0.036776792 -0.10142459 0.058763202 0.039328467 -0.41393945 -0.054317214
0.009375201 -0.3249997 0.04844923 0.3938289 -0.30070484 -0.10764416 -0.1846945 0.111101344

fc.bias f4 [10]
00000000: 78d1 833c 8d89 533e a931 76bd 67bf 94bd
00000010: a028 1b3a c565 273e 4a48 02be 2097 84bd
00000020: d20c 913e 17c1 34be
0.016091093 0.2065794 -0.060105953 -0.072630696 0.00059188344 0.16347416 -0.12722889 -0.06474137
0.28330094 -0.17651783
