results/conv_net.txt.pth (torch, 22783 bytes, 6 tensors)

conv_in.weight f4 [6, 1, 5, 5]
000000 3a db 62 3d 99 42 4f 3e 20 e6 1f 3f 73 55 bc bb
       0.055384852 0.20240249 0.6246052 -0.005747491
000010 80 dd 7b be a5 1c 84 be 11 0c 2f 3e 1b ab 08 3f
       -0.24596214 -0.25803104 0.17094447 0.53386086
000020 87 3b 6f bd cc a9 fa be 0d 79 48 be 61 83 f3 3e
       -0.05840638 -0.4895767 -0.19577427 0.47561172
000030 2b 9b c9 3e 23 21 05 be 8b 3a 5d be e8 8a 0a bc
       0.39376196 -0.13000922 -0.21604364 -0.008455969
000040 b1 e3 eb 3e fa 0b 0f 3f 95 8d 35 be 2d 2e dc be
       0.46072152 0.5587765 -0.1772979 -0.4300398
000050 ec 1b e4 bd fa 1e 3f 3e 3a 44 56 3e 13 90 eb 3d
       -0.11138138 0.1866416 0.20924464 0.11502089
000060 81 2d 8d be 79 90 1c 3f 7e a4 a4 3e b9 d8 2c be
       -0.2757378 0.6115795 0.32156748 -0.16879548
000070 f3 dd 12 bf 63 07 ed be 3c 54 dc 3e 72 13 39 bd
       -0.5736992 -0.46294698 0.43033016 -0.04518456
000080 b5 7b 14 bf 19 3f 96 be b4 a3 b2 be 47 6f 57 3e
       -0.5800126 -0.29345015 -0.3489052 0.21038543
000090 31 17 bf be 75 59 12 bf 05 2f 6d be 89 cf 2d be
       -0.3732238 -0.5716775 -0.23162468 -0.169737
0000a0 40 b4 0e be 6b f4 2f bf 4a 01 1b bf 63 ec 24 bd
       -0.13935947 -0.6873233 -0.6054884 -0.0402645
0000b0 9f 57 23 3e 7d de fa be 20 08 f1 be 5b f8 25 3d
       0.15951394 -0.4899787 -0.4707651 0.040520053
0000c0 25 0b fd 3d 82 74 c4 3e 85 66 c2 3e 85 83 8f 3e
       0.12355641 0.38370138 0.3796884 0.2803003
0000d0 3b 24 ce bd 18 b0 0f bf c0 f4 94 be 90 8a a9 3e
       -0.10065504 -0.5612807 -0.2909298 0.33113527
0000e0 ef ec a7 3e 20 a3 60 be fe b9 c7 be 95 3d 1d bd
       0.32797953 -0.21937227 -0.39009088 -0.038388807
0000f0 4a 35 45 3e 6a 40 cd 3e 44 31 0c 3f 4c 15 0c 3e
       0.1925861 0.40088207 0.54762673 0.13679999
000100 8f 10 68 3e df b2 33 3d 8b 3d 91 bd ea 65 e5 3e
       0.22662567 0.043871757 -0.070918165 0.44804317
000110 e7 e7 0a 3f 2c c1 2e 3e e7 a5 5e be 67 5c dd bd
       0.54260105 0.17065877 -0.21742974 -0.1080864
000120 8c e2 19 bf 9c 9c 9e be cc 02 ce be 59 36 e4 3d
       -0.6011131 -0.30978858 -0.4023651 0.111431785
000130 a3 7f 83 be 13 f2 4d be b1 ab 1d be 80 28 9b 3e
       -0.25683317 -0.20111875 -0.15397526 0.30304337
000140 dd 05 5d 3c 71 2c 77 be 95 8e 0b bf a9 d7 68 bd
       0.013490167 -0.24138047 -0.5451444 -0.056846295
000150 69 73 fd 3e 66 f6 92 be cd 97 df be ac e7 c2 be
       0.49502113 -0.28703612 -0.43670502 -0.38067377
000160 c4 c6 63 3c ce 45 28 3f b9 96 33 be 1c 8d 6f be
       0.01390237 0.65731514 -0.17537965 -0.23393673
000170 3a 33 6e be 2f 06 8d 3e 31 7e 46 3f 8f 27 08 bf
       -0.23261729 0.2754378 0.775363 -0.5318536
000180 f5 cf bf be bf 6d 85 be bb d1 85 bd a3 9a 11 3f
       -0.37463346 -0.26060292 -0.065341435 0.5687658
000190 f0 d8 84 bd fb f6 92 be 36 8d 0d bf 60 ff cc be
       -0.0648669 -0.28704056 -0.55293596 -0.40038586
0001a0 8f c0 ac bd 39 e3 1a be 41 d4 2a be 42 f3 af be
       -0.08435165 -0.15125741 -0.16682531 -0.34365278
0001b0 2a 53 fd 3d 16 b2 e5 3d b3 61 e2 3d 59 29 df be
       0.12369378 0.11215608 0.11053791 -0.43586233
0001c0 73 70 6d be 21 ae 82 3e b3 df 5a 3e 1a de 60 bd
       -0.23187427 0.25523475 0.21374397 -0.054899313
0001d0 38 db f6 3e f5 fb 3a 3f 7b 2c f2 3e 97 72 31 be
       0.48214126 0.73040706 0.4729956 -0.17328869
0001e0 fe eb c8 3c fc da 06 3f 7c 52 81 3e 2d db 56 bd
       0.024526592 0.52677894 0.25258243 -0.052455116
0001f0 22 ac 17 be 02 c0 4e 3d 63 ab 66 be 99 fe 1c bd
       -0.14811757 0.05047608 -0.22526316 -0.03832874
000200 b6 9c 4a be b7 b7 4d be fb 45 ab 3e b7 5a 8c be
       -0.19786343 -0.20089613 0.33451828 -0.2741296
000210 d7 dd 1e bf 7f 5c 28 bf e5 27 2b 3c bf cc 10 3d
       -0.6205725 -0.6576614 0.010446523 0.03535151
000220 c0 fb 87 3c f8 e5 17 bd f7 4c 88 3e 3b 6b eb 3e
       0.016599536 -0.03708455 0.2662122 0.45980248
000230 68 22 6f 3e 1c 34 d2 3e ff 99 80 3e 18 4e 44 3e
       0.23352969 0.4105538 0.2511749 0.19170415
000240 af e1 68 3e fd c6 0a bb a9 4f 0a 3e e2 9e 93 3d
       0.22742341 -0.0021175735 0.1350695 0.07208039
000250 2c a6 77 be 52 11 04 bf
       -0.24184483 -0.5158893

conv_in.bias f4 [6]
000000 4e a2 a0 bf ae e7 6a 3e bf 7b fd be 7c 28 14 bf
       -1.2549531 0.22939941 -0.49508473 -0.57874274
000010 63 e6 39 be 15 14 98 be
       -0.18154292 -0.2970282

conv_b.weight f4 [16, 6, 5, 5]
000000 c1 a0 bd bc 45 b7 22 bd d6 d8 2d 3c dc 2f af 3c
       -0.023147942 -0.03972556 0.01061078 0.021385126
000010 0a 44 f6 bb cb c7 13 3d 98 6e 9e bd 75 66 fa 3a
       -0.007515435 0.03607921 -0.07735938 0.0019104021
000020 77 cf a1 bd 68 3a 6b 3d 3a c5 33 bd 67 a6 10 bd
       -0.07900899 0.057428747 -0.04388926 -0.035314944
000030 28 a5 56 3c 41 68 59 bd 3a c3 ad 3c c6 38 9d bd
       0.0131009 -0.05307794 0.021211255 -0.07676844
000040 7d 2b 67 3d 9a f5 0f bd 94 5f 2d bd c0 3f dd bc
       0.056437958 -0.035146333 -0.04232748 -0.027007937
000050 c3 13 86 bb 3b f4 48 bd f1 3e 8e 3c 47 a6 2b bd
       -0.0040917112 -0.04906104 0.017363997 -0.04190662
000060 b7 d9 27 3d 78 2c 04 3d d4 94 8b bd 28 b5 a1 bc
       0.040979113 0.03226897 -0.06815496 -0.019739702
000070 91 78 1c 3d b8 f6 25 3c 98 aa 03 3d a1 c5 8c bc
       0.03820092 0.010129623 0.032145113 -0.01718408
000080 f8 da 58 3c 92 74 80 bc 48 94 9f bd 02 52 95 bd
       0.0132358 -0.015680585 -0.07791954 -0.072910324
000090 37 11 ad 3d 38 b3 4b 3c 0e 9c 78 3d 23 ae 4e bd
       0.08450549 0.012432866 0.0606957 -0.05045904
0000a0 cf 5b 5b 3c e7 fb 82 3b 86 a4 53 3d 8b fc a5 bd
       0.013388588 0.0039973143 0.051670574 -0.081048094
0000b0 de 42 34 3d 6c b2 29 bd f1 7e 42 3d 23 ea cf bc
       0.044009082 -0.041429922 0.047484342 -0.0253802
0000c0 78 43 da bc 89 cb f2 3c 1f 83 58 3d 7e fe a4 3d
       -0.0266435 0.029638069 0.05285942 0.08056353
0000d0 78 e2 09 3b 8f ac 88 bc e7 cd 63 bd 04 e3 22 bd
       0.0021039527 -0.016683845 -0.055616286 -0.03976728
0000e0 52 49 29 3c 82 05 44 3c b3 5f 9f ba 27 cb 60 bd
       0.010332422 0.011964204 -0.0012159258 -0.05488124
0000f0 65 ff 30 3d e1 65 01 3d cb 23 e4 bc 2e 19 7c bd
       0.043212313 0.0315913 -0.027849099 -0.06154745
000100 17 9d d7 3c 80 a0 26 3a 84 c8 8d bc a1 df ad 38
       0.026320023 0.0006356314 -0.017307527 8.290937e-05
000110 99 42 2a bd 9b b3 a1 bc 98 20 2f 3c 97 70 21 3d
       -0.04156742 -0.019738963 0.010688923 0.039414015
000120 23 5d ab bc ec 9f 05 bd 11 6a 83 bd f3 e3 a0 bd
       -0.020918434 -0.032623217 -0.06416715 -0.07855978
000130 7b 9c 63 3d e5 08 f5 bc 24 76 6a 3c c5 d1 a0 bd
       0.055569153 -0.029911468 0.0143103935 -0.0785251
000140 31 1c 82 bd 5b 68 5c 39 aa dc 94 bc bb 67 5b bd
       -0.06353033 0.0002101971 -0.018171627 -0.053565722
000150 20 63 9d bd c1 87 47 3d 84 e3 95 bc 51 91 08 bd
       -0.07684922 0.04871345 -0.018296964 -0.03334171
000160 6e 5f 16 bc ee d4 57 3d 62 38 0d 3d 3d d6 81 3d
       -0.009178026 0.0526933 0.0344776 0.06339691
000170 bf 99 45 bd f5 5f a9 bd c5 76 8f bd 2b 8a 97 bd
       -0.048242327 -0.082702555 -0.07005075 -0.073994
000180 fe 2f 11 bd 57 2e 34 3b 73 99 47 bd 74 93 92 bd
       -0.03544616 0.002749344 -0.048730325 -0.07157031
000190 fa b9 03 bd 65 c2 6c bd 33 93 4c 3d cd ea 25 bc
       -0.032159783 -0.057802577 0.049945068 -0.010126782
0001a0 e8 8b 91 bd 4c 49 3b bd 79 6d 6a bd 68 82 31 3d
       -0.07106763 -0.0457242 -0.057233308 0.043337256
0001b0 c0 5f 3d 3d a1 18 24 3b 11 ad a0 bc 46 4b 34 bc
       0.046233892 0.0025039094 -0.019613774 -0.011004275
0001c0 22 cd 83 bd 3e fa 79 3d 1a 95 7f bd 51 1d a3 ba
       -0.0643561 0.061029665 -0.062398054 -0.001244465
0001d0 9a 3a 22 bc ba e3 38 bd d5 21 09 bd ec 32 cc 3c
       -0.009901667 -0.045139052 -0.03347953 0.024926625
0001e0 cd 3e 58 bc e0 13 e3 3c c4 32 c3 bc bb df 73 3d
       -0.013198567 0.027719438 -0.023827918 0.059539538
0001f0 f5 ac a5 bd de 9a 9a bd fc 50 84 bc 60 2d ca bb
       -0.080896296 -0.0754907 -0.016151898 -0.00616996
000200 3b 5f 82 bd 49 ef 76 bd e0 14 cb 3b 17 03 35 bb
       -0.0636582 -0.060286794 0.006197557 -0.002762025
000210 ac 06 0a bd 52 21 fd 3c a4 3c 5e bd 45 73 71 bc
       -0.03369777 0.030899677 -0.05425705 -0.014736955
000220 6f 67 64 bd e7 7a 28 3d 5b 0e 6b 3c 2c e1 a3 bd
       -0.055762704 0.041132834 0.014346684 -0.080019325
000230 5b a6 dc bc 15 88 62 3c 90 70 37 bd bd 5a e5 3c
       -0.026934793 0.01382639 -0.044785082 0.027997369
000240 1d 9b 9d 3d 36 1a 49 bc da c6 83 bd c7 03 6f bd
       0.07695601 -0.012274316 -0.06434412 -0.05835321
000250 b2 5c d4 3c c6 70 4b bd 5c d5 8a bd bf 0b a1 bc
       0.025923107 -0.049668096 -0.06778976 -0.019658921
000260 36 c8 ae 3d 1b dd 19 3e 52 22 7d 3a 16 7e c9 bd
       0.08534281 0.15025751 0.0009656298 -0.09838502
000270 f9 cd cd 3c 38 82 c6 3d e5 75 f8 3b ef 90 f9 bd
       0.02512263 0.09692806 0.0075824135 -0.12185847
000280 7d bf 0d be 39 2b c2 bd 04 7d 8c bd 93 f4 e7 bc
       -0.13842578 -0.094809 -0.06859782 -0.028314864
000290 f2 28 84 bd 03 9b 10 be 15 04 37 be 84 4d 09 be
       -0.06453122 -0.14121632 -0.17872651 -0.13408476
0002a0 16 c3 c7 bd 24 58 75 3c 40 6f 3b be e7 44 ae bd
       -0.097540066 0.014974628 -0.18304157 -0.08509236
0002b0 b2 51 b5 bc c0 6e 64 3c 4d 70 f4 3c 8a cb 20 3d
       -0.022133682 0.0139424205 0.029838705 0.03925661
0002c0 dc 25 83 3d c3 e2 39 bc d6 d7 da ba 70 4e 33 3e
       0.064037055 -0.011345568 -0.0016696404 0.1751039
0002d0 4b cc 0d 3e 5b f6 14 bd 9d 7a 63 3d 6e 2d 80 3e
       0.13847463 -0.036367755 0.055536855 0.2503466
0002e0 f2 a9 a5 3e 69 38 32 bb af 05 5e 3d 5a 49 48 3e
       0.3235622 -0.0027194268 0.05420464 0.19559231
0002f0 5f 24 48 3e ec 46 f2 3d b7 02 d3 3d 9b 80 2d 3e
       0.19545124 0.118299335 0.10303252 0.1694359
000300 6f ba 48 3e c0 6c 40 3d f1 d7 69 bc 1f 64 17 3e
       0.19602369 0.046978712 -0.014272676 0.14784287
000310 b6 94 8b 3d fd e4 17 bd 9e e5 f7 bc 6f 00 88 3d
       0.06815474 -0.037083615 -0.030260857 0.06640708
000320 02 e6 70 bd 52 5e d4 3c b8 b2 6e bd d7 65 75 3d
       -0.058813103 0.025923882 -0.05827591 0.059911575
000330 42 d1 4a 3d f8 84 a3 3c e8 d2 d8 bc 51 f7 61 3c
       0.04951597 0.019960865 -0.026467755 0.013791875
000340 32 7e 4f 3c 14 bf 89 3c ff 62 87 3c 25 e0 99 bd
       0.012664365 0.016814746 0.016526697 -0.07513455
000350 14 8b 55 3d 1e 8c 79 3b 6a 35 f9 bc 8b e6 b4 bd
       0.05213459 0.00380779 -0.030420978 -0.08833035
000360 d5 c3 71 ba cf 44 0c be bc a0 86 bd 53 1d 6c bd
       -0.00092226017 -0.13698123 -0.065736264 -0.057645153
000370 7d 7b 99 bd dc 97 1f be 24 8b 9b bd b0 06 03 be
       -0.07494257 -0.15585274 -0.07594898 -0.1279552
000380 b8 02 19 be e1 64 04 3e 91 07 73 3d c8 01 f7 bc
       -0.14942443 0.12929107 0.059333388 -0.030152217
000390 bf 12 39 bd a0 69 76 3d 3f f5 a6 3c b2 99 a4 bd
       -0.045183893 0.060159326 0.020380614 -0.080371276
0003a0 e4 d9 62 bc 92 99 1d 3d 1a ab 99 3d 3d 9a be 3d
       -0.0138458945 0.038476534 0.07503338 0.09306762
0003b0 24 c6 d1 bc 69 d6 05 be 82 75 80 3d 39 d3 92 3d
       -0.025607176 -0.13070072 0.06272413 0.07169194
0003c0 1c c7 19 be 39 a6 5d bd c1 3b 84 3d 80 db 41 bd
       -0.1501736 -0.0541136 0.0645671 -0.047328472
0003d0 e5 76 0c 3d a4 3f c0 bd 94 fc 78 bd 34 04 6b bc
       0.034293074 -0.093871385 -0.060787752 -0.014344264
0003e0 32 d0 9c 3d 80 9f cb 3d 28 f7 07 3c ed 3a 1b 3b
       0.076568976 0.099425316 0.008298673 0.0023686246
0003f0 df ec b1 3d 63 f9 04 bd 2c fb 63 be 2e 58 37 3c
       0.08687758 -0.032464396 -0.22263783 0.011190457

conv_b.bias f4 [16]
000000 b9 60 ba bc 0a 38 9e bd 62 c8 a4 be 78 23 b2 be
       -0.0227512 -0.07725532 -0.3218413 -0.34792686
000010 c7 36 94 bd 6e 37 91 bd fa 9f b5 bc 16 8d 55 be
       -0.072370104 -0.070906505 -0.02217101 -0.20854601
000020 ee 41 83 3d 68 68 78 bc 8c 2a be bc 6b 8c 00 bd
       0.064090595 -0.015161611 -0.023213647 -0.031383913
000030 18 f4 e8 bb 0c 9b 7a bd 38 3a c0 bd e2 14 26 be
       -0.0071091764 -0.06118302 -0.09386104 -0.16218904

fc.weight f4 [10, 256]
000000 61 fe 67 bd 8b e2 90 bb fa b9 8d 3c cd 1e 14 3b
       -0.05663908 -0.0044215373 0.017300595 0.0022601367
000010 2e 32 29 3d f9 f4 05 bd c9 e6 f4 3c 9c d0 b7 3c
       0.04130762 -0.032704327 0.029895203 0.02243834
000020 e9 14 52 bd b3 aa 32 bd 40 77 09 3c 55 b6 9d bc
       -0.051289473 -0.043619823 0.008390248 -0.019251982
000030 b6 71 ff 3b 4e 3c af ba eb e0 59 bd b2 d5 46 bc
       0.007795538 -0.0013369413 -0.053193014 -0.01213591
000040 12 16 7f 3d 29 db 0a 3c 16 d5 80 bd e0 c5 0a b8
       0.062276907 0.008475103 -0.06290643 -3.308605e-05
000050 d5 32 7d 3d 7b e0 11 3b 99 ca 01 bd 01 91 2b be
       0.061816055 0.0022259045 -0.031687353 -0.16754533
000060 28 f0 8e 3c e5 8d b1 bc 5d 5c e8 3c da 29 01 3e
       0.0174485 -0.021674106 0.028364355 0.12613621
000070 69 7b 2f be c5 d3 cc bd e4 be 2c 3e db de 5d 3e
       -0.17136921 -0.10001329 0.16869694 0.21667044
000080 0d 85 16 3e e9 30 cd 3d c7 98 33 be cb ec c8 bd
       0.14699192 0.100190945 -0.17538749 -0.0981079
000090 94 72 92 3e 94 57 79 be bf 98 c4 3d 23 03 4c 3e
       0.2860304 -0.24349815 0.095994465 0.19923072
0000a0 1b d4 10 3e e2 44 d7 bb 98 3e 44 3e 86 6b 79 3e
       0.14143412 -0.006569491 0.19164503 0.24357423
0000b0 1e fd 89 bd c6 f9 cf bd 67 d6 ae 3c 0a 6e 98 3d
       -0.067377314 -0.101550624 0.02134247 0.07442863
0000c0 7a f1 a6 be 51 e9 56 be 2c 25 99 bd cf 2e 78 3d
       -0.32606107 -0.2098744 -0.07477793 0.060591515
0000d0 2b 5b 27 be 85 df a3 bd cb 1f 1a 3d 6e 0b 67 3e
       -0.16343372 -0.08001617 0.037627976 0.22562954
0000e0 85 72 66 3c d5 9c f5 bd 59 72 43 be 04 57 b7 3c
       0.0140653895 -0.11992804 -0.19086589 0.02238036
0000f0 61 8b 1e 3f 21 8b 49 3e e3 76 00 bf d3 2a 83 be
       0.61931425 0.1968198 -0.50181407 -0.2561861
000100 74 9e 8f 3d 74 2c c5 bd f8 90 ba 3d 28 d6 be be
       0.070126444 -0.096276194 0.09109682 -0.37272763
000110 86 82 6d bd ed 96 93 bd d2 62 2b 3e df af 3d be
       -0.057985805 -0.07206521 0.16736916 -0.18524121
000120 fb f8 cf 3d d4 bf 88 3e 49 5c b7 3d 7d 5c c0 3c
       0.10154911 0.26708853 0.08953149 0.023481602
000130 8d 1e 24 bd a1 2f 2e 3c 11 ed e1 bd e5 41 3f 3e
       -0.040068198 0.010631473 -0.11031545 0.1867748
000140 64 86 58 bd e9 73 db 3c 4b 52 b6 bb 87 77 97 be
       -0.05286254 0.026788669 -0.0055640093 -0.2958338
000150 9e 21 24 be 2a db 8f be ac 1a 7a be ea 52 3f be
       -0.16028449 -0.28096896 -0.24424237 -0.18683973
000160 e6 ab 9d be 7c 91 01 bf e6 0b c7 be 47 54 87 3e
       -0.3079521 -0.50612617 -0.38876265 0.26431486
000170 af 0d ea bd 24 c5 95 3d 55 31 80 3e 28 5e ac 3e
       -0.11428391 0.07312992 0.25037637 0.33665586
000180 a2 73 2b 3e f0 23 83 3e d6 2a 9d 3c be 2f 2a be
       0.16743329 0.25613356 0.019185465 -0.16619775
000190 4e 91 a7 ba 54 f9 15 bd 15 e5 7a bd 88 c3 4f be
       -0.0012784393 -0.03661473 -0.061253626 -0.20289433
0001a0 68 83 78 be 1c 50 ab 3d 8b e2 06 3e 12 ea e4 be
       -0.24268878 0.08364889 0.13172357 -0.4470983
0001b0 d2 8e 4c be fe d7 10 3e 77 a6 5d 3e 95 9a 67 bd
       -0.19976357 0.14144894 0.21645533 -0.056543905
0001c0 b5 f1 5c 3e 58 14 99 3e ed 9a 1a 3e 89 95 b6 bd
       0.21576579 0.29898334 0.15098162 -0.0891524
0001d0 62 d8 56 3e a1 16 47 bb 6a 07 d8 be 66 06 d4 bd
       0.20980981 -0.0030378478 -0.42193156 -0.10352783
0001e0 aa 50 3f be 9b 45 3e be 0a e4 15 3e d6 7a af 3e
       -0.18683115 -0.1858124 0.14637771 0.34273404
0001f0 32 a8 e8 be bd f2 9e 3a 47 79 2a bd 0f 80 45 bd
       -0.45440823 0.0012126785 -0.041619565 -0.04821783
000200 a3 9d b6 bd 88 8d 3e 3e dd 02 df 3d f3 39 3a 3d
       -0.089167856 0.18608677 0.10889218 0.04546542
000210 ac b0 cb bd c2 98 61 be 0b f5 c4 be ed 9d 27 be
       -0.09945807 -0.22030929 -0.38468203 -0.16368838
000220 53 58 01 bf f9 a6 82 bd 9d 3c 41 3e 80 e8 29 be
       -0.505254 -0.06379504 0.18870778 -0.16592598
000230 cd 96 34 bd 18 ac 8c 3e 99 13 89 3e d3 34 5b bc
       -0.044089127 0.27475047 0.26772764 -0.0133792935
000240 82 0f a6 3d de f1 5b 3d 85 3b 2c 3d aa a8 ea bd
       0.08108427 0.05369746 0.04204895 -0.11457951
000250 14 5f 0a 3d cf 82 ec bd d8 ec e5 3d 3b e4 72 be
       0.03378208 -0.11548387 0.11226815 -0.23719876
000260 02 bf dc bd 6b e9 0e 3d b1 56 24 3e ec d1 b3 bd
       -0.10778619 0.034890573 0.16048695 -0.08780274
000270 c1 9f 37 be 20 c9 a9 bc 04 1c ad bd 03 c9 c9 bd
       -0.17932035 -0.020725787 -0.08452609 -0.09852793
000280 51 2b 3e 3d 6b 20 80 3d 8e d6 ae 3d 59 b4 87 3d
       0.04642803 0.06256183 0.08537017 0.066261955
000290 89 de ce bd 7f 4a eb bd 0c 12 03 be c2 99 05 3a
       -0.10101039 -0.114888184 -0.12799853 0.0005096459
0002a0 93 1b ec bd 1b ab 86 bd b3 eb 42 3e 93 70 3a 3e
       -0.11528697 -0.065756045 0.19035225 0.18207006
0002b0 cb eb 9a 3d 57 b5 7a bd fd 84 4e 3e dd 3d e5 3d
       0.07564505 -0.061208095 0.20167919 0.1119344
0002c0 3c 9d 04 3d d6 17 b3 3b 26 8e f1 3c a1 46 b7 bb
       0.032376513 0.005465488 0.029486727 -0.0055931364
0002d0 5a 7b ef 3c 76 cb fc 3a 30 e8 5c 3d 37 89 6f bc
       0.029233623 0.001928671 0.05393237 -0.014620117
0002e0 08 2e 3e bc 56 0e 51 3d 0a 55 e4 3c ad 41 0a bc
       -0.011607654 0.051039062 0.027872581 -0.00843851
0002f0 d0 c9 57 3c 3e 2e 2f 3d f5 7a 49 3d f8 05 19 bd
       0.013170674 0.04276871 0.049189527 -0.037359208
000300 35 71 81 3d 45 ba df 3b c2 46 2b bd 8b 84 18 3d
       0.06320421 0.006827625 -0.041815527 0.037235778
000310 21 9a 26 3d 32 75 f2 3c 1e ba 4e 3d ba 24 93 3d
       0.040674333 0.029596899 0.050470464 0.071847394
000320 d7 2d 93 3d 9d 22 27 3d ed 3e 29 bd c5 5e fc bc
       0.07186478 0.040804494 -0.041319776 -0.030806908
000330 26 79 bc 3b 75 0c 2a bd 5c ed ef 3c e2 80 58 bd
       0.0057517467 -0.041515786 0.029287986 -0.052857287
000340 ef ca ec bd 6f d9 22 3e 6e 63 85 3e 78 9e 81 3e
       -0.11562144 0.15903257 0.2605242 0.25316215
000350 78 09 f2 bc cf 5f 90 be 97 c9 1d be 00 88 99 3d
       -0.02954553 -0.28198096 -0.15408932 0.07496643
000360 44 e2 38 bd 81 bf 47 be 3a 62 f9 bc 9b 14 4c be
       -0.04513766 -0.19506647 -0.030442346 -0.19929735
000370 32 90 8b 3e 29 5c 8d 3e 05 14 a1 3e d1 96 3b be
       0.2725845 0.27609375 0.31460586 -0.1831925
000380 f8 c4 a8 3b 5a e7 18 3e 14 ab 7e bd 95 10 a7 bc
       0.0051504336 0.14932004 -0.06217487 -0.02039365
000390 8e 58 52 bd 24 68 51 be d7 7d 8b bd d5 de 2a bc
       -0.051353984 -0.20449883 -0.068111114 -0.010429104
0003a0 28 4c ab be 94 d1 30 be df 67 2c 3e 71 07 dd 3d
       -0.3345654 -0.17267448 0.16836499 0.10792435
0003b0 84 d1 ee bd 13 d4 1c 3e 84 0f 29 3e e2 7f 2e bd
       -0.11661056 0.15315275 0.16509825 -0.042602427
0003c0 f4 a1 8d bd 72 a7 34 bd 29 d0 28 3e b8 7e a0 3e
       -0.06915656 -0.044105 0.16485657 0.3134668
0003d0 e0 69 33 bb 3a 8d f6 bd 33 29 96 bc 7a e7 70 3c
       -0.002737634 -0.120386556 -0.018330192 0.014703626
0003e0 b0 91 82 3d 5e 04 88 3e 55 f7 8e be b3 e8 46 be
       0.06375444 0.26565832 -0.27923074 -0.19424705
0003f0 d4 4b f7 3d 2b 8e 52 3e 42 29 5c be 2c 48 da be
       0.1207501 0.20562045 -0.21500114 -0.42633188

fc.bias f4 [10]
000000 3a c1 00 bb 3a 14 6b 3e cd cf 0d be 86 bd 50 bc
       -0.0019646422 0.22956935 -0.13848801 -0.012740498
000010 ad c4 de 3d 60 41 ec bd 34 48 fd bc db 68 f7 ba
       0.10877357 -0.11535907 -0.030918218 -0.0018875854
000020 55 30 88 3e 0e fb 81 be
       0.26599374 -0.25386852
